model/ANN_pt_complete.pth (torch, 4376 bytes, 5 tensors)

weight f4 [6, 11]
0.44263285 0.53704226 0.20327714 0.5694067 0.20603919 0.34135348 0.11544116 0.16853596
0.15794997 -0.14470255 0.24365436 0.03214196 0.24239068 0.046949286 0.16721562 -0.018585198
0.2442689 0.07658679 -0.19303377 0.054697372 -0.08423862 -0.010458395 -0.13191779 0.18684763
-0.25840318 -0.14898096 -0.0933954 -0.17875236 0.0460188 -0.2886125 0.2585931 -0.26698834
0.21170878 -0.0055079586 -0.17478864 0.112033434 -0.028270885 0.16430491 -0.008902488 -0.16063003
0.05650306 -0.041885853 0.0646563 0.2048837 0.07411688 -0.2542813 0.054337554 -0.07822714
0.07224175 -0.2650007 -0.38459438 -0.10628126 -0.16299757 0.12539521 0.008738312 0.4808401
0.52676415 0.39487118 0.6719369 0.13867751 0.45470634 0.21814647 0.05699668 -0.2556531
0.3119273 0.009528744
00000000: c6a0 e23e 9a7b 093f e227 503e a3c4 113f
00000010: f0fb 523e e2c5 ae3e 6a6c ec3d b194 2c3e
00000020: a3bd 213e e82c 14be 8780 793e 4aa7 033d
00000030: 4335 783e e54d 403d 923a 2b3e fc3f 98bc
00000040: a021 7a3e 89d9 9c3d a5aa 45be 5a0a 603d
00000050: 4c85 acbd b059 2bbc 7515 07be fc54 3f3e
00000060: 6c4d 84be 778e 18be 1646 bfbd dc0a 37be
00000070: 367e 3c3d 05c5 93be 5166 843e b2b2 88be
00000080: 30ca 583e 1b7c b4bb cbfb 32be c971 e53d
00000090: 5898 e7bc 8c3f 283e bedb 11bc 337c 24be
000000a0: c16f 673d 8090 2bbd 866a 843d 08cd 513e
000000b0: 97ca 973d 2931 82be 0e91 5e3d 8d35 a0bd
000000c0: 7cf3 933d 2cae 87be 8ee9 c4be fda9 d9bd
000000d0: d6e8 26be 9a67 003e 232b 0f3c ac30 f63e
000000e0: 04da 063f 8e2c ca3e 0f04 2c3f 7a01 0e3e
000000f0: 45cf e83e ca61 5f3e 5a75 693d f7e4 82be
00000100: efb4 9f3e 731e 1c3c

bias f4 [6]
0.5518531 -0.15485485 -0.19649044 -0.25890297 0.14272119 0.56891537
00000000: 3f46 0d3f 4592 1ebe ca34 49be ee8e 84be
00000010: 8125 123e 70a4 113f

weight f4 [6, 6]
0.63720804 -0.18134272 -0.2793996 -0.18715416 -0.16053768 0.5362785 0.4545803 0.50174105
-0.09802521 -0.1391585 0.33377388 0.33483693 0.56868595 0.008111922 0.30725077 -0.27788925
-0.1952793 0.6377818 0.35699156 0.05231268 0.33545402 0.39015082 -0.16168332 0.23484963
0.61898154 -0.010026242 -0.04922336 -0.2867758 -0.1325167 0.49150103 -0.053885996 -0.29634172
0.009576142 -0.2788669 -0.3463565 -0.22480708
00000000: 1120 233f e8b1 39be 770d 8fbe 57a5 3fbe
00000010: fd63 24be 8c49 093f c0be e83e 1a72 003f
00000020: 71c1 c8bd 917f 0ebe 69e4 aa3e bf6f ab3e
00000030: 6795 113f dee7 043c f94f 9d3e 8047 8ebe
00000040: 4cf7 47be ab45 233f 99c7 b63e d245 563d
00000050: a1c0 ab3e d9c1 c73e 5090 25be 6c7c 703e
00000060: 9375 1e3f 1b45 24bc 6f9e 49bd 47d4 92be
00000070: 75b2 07be 06a6 fb3e 90b7 5cbd 1aba 97be
00000080: 40e5 1c3c a4c7 8ebe a455 b1be d433 66be

bias f4 [6]
-0.11957845 0.0014716663 0.63480896 0.31046358 0.33667895 -0.38076678
00000000: 8ce5 f4bd ede4 c03a d782 223f 15f5 9e3e
00000010: 2f61 ac3e ddf3 c2be

weight f4 [1, 6]
-0.5879223 -0.4800512 -0.28294882 -0.7197342 -0.4447659 -0.24440543
00000000: 1382 16bf 45c9 f5be abde 90be 8040 38bf
00000010: 5bb8 e3be 6b45 7abe
